Meta_Matcher/scripts/best_models_from_hpo/dblp/trial_0103/best_model.pt (torch, 994658 bytes, 12 tensors)

score_calib.linear.weight f4 [4, 4]
0	0x3f441327	0.76591724
1	0x3e18637e	0.14881703
2	0x3eeb5b5d	0.45968142
3	0x3f24878f	0.64269346
4	0xbe09ea25	-0.13468225
5	0x3f9973d6	1.1988475
6	0xbd1bf7b2	-0.038078018
7	0x3bedc403	0.0072560324
8	0xbea9759e	-0.33097547
9	0x3de96baf	0.11397492
10	0x3f9fbec7	1.2480096
11	0x3dd2c1fb	0.10290905
12	0xbe557424	-0.20845085
13	0x3e996a5b	0.29963955
14	0xbe2517a3	-0.16122298
15	0x3f8714dc	1.0553241

score_calib.linear.bias f4 [4]
0	0xbcb91937	-0.022595031
1	0x3f0df4cf	0.55451673
2	0x3f56f367	0.8396515
3	0x3f0bfa90	0.54679203

model_id_emb.weight f4 [4, 8]
0	0xbdb5558e	-0.08854209
1	0x3f83e006	1.0302742
2	0x3fa0dd09	1.2567455
3	0x3ff570d8	1.9175062
4	0xbf99cca4	-1.2015576
5	0xbf4228c3	-0.7584345
6	0xbcd09f9d	-0.025466735
7	0xbe2addad	-0.16686125
8	0xc00c7135	-2.1944096
9	0x3fc789d4	1.5588937
10	0xbd911c09	-0.070854254
11	0x3f88d3c6	1.0689628
12	0xbed7500c	-0.42053258
13	0x3d659317	0.05604848
14	0x3fca3b8f	1.5799426
15	0xbf6dd15c	-0.9289758
16	0x3f28d68f	0.6595239
17	0xbeb251e7	-0.34828112
18	0x3c2f2076	0.010688892
19	0x3f65c88b	0.8975913
20	0xc02fe25b	-2.7481906
21	0x3fbac4cc	1.4591308
22	0x3f68e5bf	0.90975565
23	0x3eed0509	0.46292904
24	0xbedd6848	-0.43243623
25	0x3feaa40a	1.8331311
26	0x3f80d4f3	1.0064987
27	0x3e7c1e5d	0.24620958
28	0xbea1d2dd	-0.31606188
29	0xbd84d796	-0.06486432
30	0xbf7a0123	-0.97657984
31	0x3e108af9	0.14115514

backbone.0.weight f4 [128, 1540]
0	0xbd8f2466	-0.06989364
1	0xbd2062a4	-0.03915657
2	0xbce5f411	-0.028070481
3	0xbd2ae987	-0.041726615
4	0x3c2f5e9f	0.010703712
5	0x3c897ee0	0.016784132
6	0xbc0f8581	-0.008759857
7	0xbb697942	-0.0035625254
8	0x3a0ffa98	0.00054923585
9	0x3c787b5a	0.015166128
10	0xbc5df3c1	-0.013546885
11	0xbc187aa8	-0.009306587
12	0xbcbe5fd0	-0.023239046
13	0xbcba6a00	-0.022755623
14	0xbb1d1e8f	-0.0023974513
15	0x3be5a71d	0.007008447
16	0xbc8e4fb5	-0.017371992
17	0xbc35208a	-0.011055121
18	0xbc9fb3ca	-0.01949491
19	0x3ca1e4a5	0.019762347
20	0xbbbc603b	-0.0057487763
21	0x3c942d63	0.018088048
22	0x3b2f0c84	0.002671034
23	0x3d21089c	0.03931485
24	0xbcf1e074	-0.029525973
25	0xbc4f3490	-0.012646809
26	0x3c541adf	0.01294586
27	0xbcb55936	-0.022137266
28	0x3ceb5ed0	0.028731734
29	0xbafaad6e	-0.0019125172
30	0x3d0a2451	0.03372604
31	0x3bdfe25d	0.0068324045
32	0xbd2680ff	-0.040650364
33	0xbc4d2e15	-0.012523194
34	0x3cf22bec	0.02956196
35	0xbd203a5a	-0.03911815
36	0x3c3bdba7	0.011465943
37	0xbb9a0633	-0.004700446
38	0x3d5d8b6a	0.054088034
39	0x3bbf89fc	0.0058453064
40	0xbb7ebac4	-0.0038868645
41	0x3c732a58	0.0148416385
42	0x3ca74b37	0.020421607
43	0xbd276387	-0.0408664
44	0x3c5076fb	0.01272368
45	0x3d5093ce	0.050922208
46	0x3d1fa5b4	0.038976386
47	0x3c30dd7a	0.010794992
48	0xbb599675	-0.0033201252
49	0xbc6a92f2	-0.014317261
50	0x3cb58936	0.022160154
51	0xbb014951	-0.0019727538
52	0x3ceee071	0.029159756
53	0xbcaab924	-0.020840235
54	0xbab4b31b	-0.0013786288
55	0xbc0f50b1	-0.008747266
56	0xbcc276ea	-0.023738343
57	0xbb320c51	-0.0027167986
58	0x3c5afb39	0.01336556
59	0x3cee5307	0.029092325
60	0x3d0fabd8	0.035075992
61	0x3bbeec31	0.005826496
62	0xbccaa4aa	-0.024736721
63	0xbc1fbd91	-0.009749786
64	0x3b8283da	0.003983003
65	0x3cdedbae	0.02720436
66	0x3ceeb337	0.02913819
67	0xbce93ff0	-0.02847287
68	0xbcd5bbbe	-0.026090499
69	0x3c19da12	0.009390371
70	0x3cec16e1	0.028819503
71	0xba812cb9	-0.0009855247
72	0xbc2714e3	-0.010197851
73	0x3c89ee7c	0.016837351
74	0x3d03f875	0.03221937
75	0x3c6167b4	0.013757635
76	0x3c9a1987	0.018811
77	0x3c938a50	0.018010288
78	0xbc3279ca	-0.010893295
79	0xbbe2e118	-0.006923806
80	0xbc3ba93d	-0.011453924
81	0x3ce35208	0.027749076
82	0xbadd412c	-0.0016880385
83	0x3c42e69a	0.0118958
84	0x3c17be0d	0.00926162
85	0xbd2f408d	-0.04278617
86	0x3ca83969	0.020535188
87	0x3bb5a0c2	0.0055428455
88	0xbbdf5aea	-0.0068162577
89	0xbc0fd634	-0.008779097
90	0xbc0da65c	-0.00864562
91	0x3d0e7d4f	0.034787472
92	0xbbc7cd96	-0.006097506
93	0xbc8d21cd	-0.017228032
94	0xbd78d661	-0.060751323
95	0xbb143238	-0.002261294
96	0xbd25276a	-0.04032079
97	0xbd0b9eb8	-0.034086913
98	0xbc2c6626	-0.010522401
99	0x3d02cf8f	0.031936225
100	0xbc59672b	-0.013269226
101	0x3c768aa6	0.015047705
102	0xbbd48690	-0.0064857677
103	0x3be9fe77	0.0071409303
104	0x3bd911d1	0.0066244383
105	0xbd4956ef	-0.049155172
106	0x3bc54303	0.0060199513
107	0xbba9e439	-0.005184677
108	0xbc9f5e90	-0.01945427
109	0x3d1b9cab	0.037991207
110	0xbc0a1462	-0.008427711
111	0xbc603969	-0.013685563
112	0xbbd500a7	-0.006500322
113	0xbba51197	-0.0050374973
114	0x3cbc78e5	0.023006866
115	0xbcb3e08c	-0.021957658
116	0xbd6fd3fa	-0.058551766
117	0x3c27be08	0.010238178
118	0xbc252d02	-0.0100815315
119	0x3c30d043	0.010791841
120	0x3c91863a	0.0177642
121	0x3c199b16	0.009375354
122	0x3bd1bb23	0.0064004823
123	0xbb84488b	-0.004036968
124	0x3cd64397	0.026155276
125	0xbc669ee9	-0.014075973
126	0xbc391bea	-0.011298159
127	0x3a6393ec	0.0008681405
128	0x3b4cb0ab	0.0031233232
129	0x3beccbf3	0.007226461
130	0x3a405b5f	0.0007337834
131	0xbc891dd8	-0.016737863
132	0xbc37f335	-0.011227419
133	0x3c32e83c	0.010919627
134	0x3cc2cfcd	0.023780728
135	0xbc4d96d5	-0.012548168
136	0xbcffc1d2	-0.03122035
137	0xbd421194	-0.047380045
138	0xbc3852e4	-0.011250231
139	0x3c8664dd	0.016405517
140	0x3b8e256a	0.004337956
141	0x3cb44ead	0.022010172
142	0xbc81fd19	-0.015867757
143	0xbcd61adb	-0.026135853
144	0x3d31ee8f	0.043440398
145	0xbc9a4421	-0.018831315
146	0xbd2cf1c6	-0.04222276
147	0x3c8c3b6e	0.017118182
148	0xbcae2550	-0.021258026
149	0xbbcedc7d	-0.0063129053
150	0xbd0831db	-0.03325067
151	0xbc9ec0c2	-0.019379023
152	0xbd2b98e8	-0.04189387
153	0x3cdf8afd	0.027287954
154	0x3bb21ad8	0.005435329
155	0xbd047780	-0.032340527
156	0xbd12ef09	-0.035872493
157	0xbcdf45e9	-0.027255015
158	0x3c8aa123	0.01692254
159	0xbd1db018	-0.038498014
160	0xbc17b591	-0.009259597
161	0xbd2aa9df	-0.041665908
162	0x3c51590e	0.01277758
163	0xbc2e97cf	-0.010656311
164	0x3c96e6be	0.018420573
165	0xbc088a63	-0.008333775
166	0xbcae733d	-0.021295184
167	0x3ce8513d	0.02835905
168	0x3b8255f6	0.0039775325
169	0xb9abf756	-0.0003279994
170	0xbc99bb05	-0.018765936
171	0x3bed66c3	0.007244916
172	0x3c53ae4f	0.012919976
173	0x3baeb27d	0.005331336
174	0x3d96203a	0.073303655
175	0x3d0d501f	0.034500238
176	0x3c8d8367	0.017274572
177	0xbc838ed7	-0.016059322
178	0x3c902d1b	0.017599633
179	0x3d203e53	0.039121937
180	0xbdabcc18	-0.08388537
181	0x3b4d6bdf	0.0031344814
182	0x3c2fa109	0.010719546
183	0xbb87a187	-0.0041391286
184	0xbbb1cd8c	-0.0054261144
185	0xbc851a7e	-0.016247984
186	0xbcf6a705	-0.030108938
187	0xbbead4d4	-0.0071664844
188	0x3d34d0dc	0.044144496
189	0xbc9fd646	-0.019511353
190	0xbd149245	-0.036272306
191	0xbc217571	-0.00985466
192	0xbc2237a2	-0.009900959
193	0xbc5b74d6	-0.013394555
194	0xbc2df1cc	-0.010616731
195	0x3cf1b455	0.029504934
196	0xbc3e490e	-0.011614097
197	0x3cce139b	0.025155833
198	0xbc52a029	-0.012855568
199	0x3c6e562e	0.014546914
200	0xbcae6451	-0.021288069
201	0x3cc5587a	0.02409004
202	0x39d9ee3d	0.00041566967
203	0x3be7e4e9	0.0070768488
204	0xbc453153	-0.012035686
205	0xbb462840	-0.0030236393
206	0x3b1560c4	0.0022793273
207	0x3badc388	0.00530285
208	0x3c153a65	0.009108161
209	0xbd8c10da	-0.06839152
210	0xbb078bc4	-0.0020682672
211	0xbd083820	-0.03325665
212	0x3ca95f20	0.020675242
213	0x3b4938fe	0.0030704136
214	0xbcf7ddf3	-0.0302572
215	0x3c9b1904	0.018932827
216	0xbb97e418	-0.004635345
217	0x3cea3e83	0.028594261
218	0xbd239f6f	-0.03994697
219	0x3cb39ae1	0.021924438
220	0x3d2a678d	0.04160266
221	0xbc2e123c	-0.010624465
222	0x3b05f55d	0.0020440437
223	0xbbbe36c5	-0.005804869
224	0x3c4b87f9	0.012422555
225	0x3bb6a666	0.0055740355
226	0x3bf877a1	0.0075826203
227	0xbc4d5247	-0.0125318235
228	0xbb076cb6	-0.0020664162
229	0x3cf1abe4	0.02950091
230	0x3bca0d93	0.006166169
231	0xbbc3473d	-0.00595942
232	0x3c21340c	0.009839069
233	0xbc9f7700	-0.019465923
234	0x3cb5c26c	0.022187434
235	0x3cf6c646	0.030123841
236	0x3cc5eaeb	0.02415987
237	0x3d119ead	0.035551716
238	0xbd24a190	-0.04019314
239	0x3c1f99f5	0.009741296
240	0xbcb064ba	-0.021532405
241	0x39f6fec1	0.00047110583
242	0x3c8b8848	0.017032757
243	0xbc7fcc1c	-0.015612628
244	0xbcc8d965	-0.024517724
245	0x3cc6ee09	0.024283426
246	0x3cd404e8	0.025881246
247	0xbca3f44c	-0.02001395
248	0xbc95b4c5	-0.018274674
249	0x3cc87dd6	0.024474066
250	0x3cc80ce9	0.024420219
251	0x3c3377c5	0.010953848
252	0x3badff9c	0.005310012
253	0x3bd52b28	0.0065053888
254	0x3cb7892a	0.022404272
255	0xbc50f081	-0.012752653

backbone.0.bias f4 [128]
0	0xba7864e6	-0.0009475484
1	0xbd192259	-0.037386272
2	0xbd075480	-0.03303957
3	0xbb5ece40	-0.0033997446
4	0xbe64ce62	-0.22344354
5	0xbe05a290	-0.13050294
6	0xbd265360	-0.040606856
7	0xbeb93990	-0.3617673
8	0xbe21ddab	-0.15807216
9	0xbd6874ff	-0.0567522
10	0xbceb9824	-0.02875907
11	0xbdc6e402	-0.09711458
12	0x3e65925e	0.22419116
13	0xbd077b69	-0.033076677
14	0xbcb3daa7	-0.021954847
15	0xbe23f3e4	-0.16011006
16	0xbe3a17a8	-0.18173087
17	0xbaa18459	-0.0012322768
18	0x3a828ed4	0.0009960779
19	0xbe63b5f6	-0.22237381
20	0xbcc83206	-0.024437916
21	0xbdac4998	-0.084124744
22	0xbc568c5f	-0.0130949905
23	0xbd681afc	-0.05666636
24	0xbc42bea0	-0.011886269
25	0xbd816230	-0.06317556
26	0xbdffadc2	-0.124843135
27	0xbe070636	-0.13185963
28	0xbc3d40a8	-0.01155106
29	0xbde83303	-0.11337855
30	0xbe180d05	-0.14848717
31	0xbd4f7691	-0.050650183
32	0xbe2d5f03	-0.16930775
33	0xbc2c3569	-0.010510781
34	0xbd17b4e8	-0.03703776
35	0xbc59bf4d	-0.013290239
36	0xbdcaedd9	-0.09908647
37	0xbc8802c0	-0.016602874
38	0x3abebec9	0.0014552708
39	0xbc96f95b	-0.018429449
40	0xbd3800f5	-0.044922788
41	0xbb5c7ec6	-0.0033644899
42	0x3ab73e2c	0.0013980321
43	0xbeac58ea	-0.33661586
44	0xbd932c9b	-0.07186242
45	0xbb8e612a	-0.004345079
46	0xbdeac3f7	-0.114631586
47	0xbe61a34b	-0.22034948
48	0xbc9723ae	-0.01844963
49	0xbda65571	-0.081217654
50	0xbe99bd91	-0.3002744
51	0xbc041f57	-0.008064113
52	0xbdebb380	-0.11508846
53	0xbcdfe622	-0.027331416
54	0xbe1622f2	-0.14661768
55	0xbe39c0b0	-0.1813991
56	0xbc067cde	-0.008208482
57	0xbcc85e58	-0.02445905
58	0xbd1504ec	-0.036381647
59	0xbca10a4e	-0.019658234
60	0xbcb7e395	-0.022447387
61	0xbc5bbfd7	-0.013412437
62	0xbe02fd74	-0.12791997
63	0xbe7e8aa3	-0.24857573
64	0xbe23aaf2	-0.15983179
65	0xbd8ebb8b	-0.06969365
66	0xbcc45beb	-0.023969611
67	0xbd24aa6a	-0.040201582
68	0xbc14454d	-0.009049726
69	0x3c2a8eee	0.010410054
70	0xbca917c3	-0.020641213
71	0xbc7a3dc6	-0.015273517
72	0xbda7c707	-0.08192258
73	0xbd06f371	-0.032947008
74	0xbd0c5fdf	-0.034271117
75	0xbe32b6e2	-0.17452577
76	0xbe54dc80	-0.20787239
77	0xbe17b2a2	-0.14814237
78	0xbdd873cd	-0.10568962
79	0xbd4cc912	-0.049996443
80	0xbc1ebbf8	-0.00968837
81	0xbe31f572	-0.17378786
82	0x38c8b408	9.5702766e-05
83	0xbd96f601	-0.0737114
84	0xbd702f7c	-0.058639035
85	0xbd6bcf7a	-0.057570912
86	0xbd62a356	-0.05533155
87	0xbe1437f4	-0.1447447
88	0xbde0bb16	-0.10973184
89	0xbca7b29a	-0.020470906
90	0xbe678764	-0.22610241
91	0xbd1660d4	-0.036713436
92	0xbdce0473	-0.10059442
93	0xbd478353	-0.048709225
94	0xbe78225d	-0.24231859
95	0xbcb60008	-0.022216812
96	0xbc5b2cb9	-0.013377362
97	0xbd11643b	-0.035495978
98	0xbe219934	-0.15781099
99	0xbda2b81f	-0.079452746
100	0xbdc758a1	-0.097337015
101	0xbd199bc9	-0.037502084
102	0xbe4f246c	-0.20228738
103	0xbe95d062	-0.29260546
104	0xbdce956e	-0.10087095
105	0xbe8b853d	-0.2725009
106	0x3c2e3803	0.010633471
107	0xbd044dc1	-0.032300714
108	0xbe7f2115	-0.24914964
109	0xbe0d09e1	-0.137733
110	0xbe846de1	-0.2586508
111	0xbd5ae70f	-0.05344301
112	0xbd882af7	-0.0664882
113	0xbd4f18a0	-0.050560594
114	0xbd93273b	-0.07185217
115	0xbd187e30	-0.037229717
116	0xbe7c0f57	-0.24615227
117	0xbd09ed73	-0.033673715
118	0xbd574c34	-0.052562907
119	0x3b4248eb	0.0029645513
120	0xbdeecfaf	-0.11660706
121	0xbb300e95	-0.002686416
122	0xbd830465	-0.063973226
123	0xbd768a72	-0.060190625
124	0xbe6a6cc5	-0.22893055
125	0xbc292e41	-0.010325969
126	0xbe9b82c5	-0.30373207
127	0xbd127ee0	-0.03576553

backbone.3.weight f4 [128, 128]
0	0xbd7f4040	-0.062317133
1	0xbd094dd4	-0.03352149
2	0xbda6887f	-0.08131503
3	0xbd4d575e	-0.050132148
4	0x3de48bc2	0.11159469
5	0x3cc2332b	0.02370604
6	0xbc5771cd	-0.013149691
7	0x3ef8c9e5	0.48591533
8	0x3e8eea80	0.27913284
9	0xbdd7b38a	-0.10532291
10	0xbda710b5	-0.081574835
11	0xbd985f98	-0.07440108
12	0xbe945ed5	-0.289786
13	0x3d9ac571	0.0755719
14	0xbd88db31	-0.066824324
15	0x3f4f674a	0.8101698
16	0x3ce71044	0.028205998
17	0x3db4c300	0.08826256
18	0x3da69d21	0.08135439
19	0x3eafdf15	0.34349886
20	0xbd17ed18	-0.037091345
21	0x3cec7782	0.02886558
22	0xbd5e148f	-0.054218825
23	0xbe836713	-0.25664577
24	0x3d42ac9f	0.047527906
25	0xbeea8623	-0.45805463
26	0xbb1e6cf9	-0.002417384
27	0x3f129aec	0.5726764
28	0xbdc7d884	-0.09758094
29	0xbdbe32c2	-0.09287025
30	0x3e0009e5	0.12503774
31	0xbd055048	-0.032547265
32	0xbdb64afa	-0.089010194
33	0x3d4391ad	0.04774635
34	0x3c8abe64	0.016936488
35	0xbcde5c3a	-0.027143586
36	0x3e919495	0.28433672
37	0x3d12f3d4	0.035877064
38	0x3b75af96	0.003748869
39	0x3f4b4244	0.7939799
40	0xbd69de46	-0.057096742
41	0xbc819b35	-0.015821079
42	0x3c8c0e4c	0.017096661
43	0x3f6bc418	0.9209609
44	0x3cd1ef59	0.025626825
45	0x3d976097	0.0739147
46	0x3d801382	0.06253721
47	0x3ebb1009	0.3653567
48	0xbd5d6e37	-0.054060187
49	0x3e0b1010	0.13580346
50	0x3eb3ead6	0.35140103
51	0xbd468b9d	-0.04847299
52	0x3d584850	0.052803338
53	0x3d94f448	0.072731555
54	0x3d111597	0.03542098
55	0x3e1b7f4c	0.15185279
56	0xbcdd12f3	-0.026986575
57	0xbd72630b	-0.059176486
58	0xbd8d3b37	-0.0689606
59	0x3af39ae8	0.0018585594
60	0xbd09b1dd	-0.03361689
61	0x3daf01f5	0.08545295
62	0x3e886b7b	0.266445
63	0xbe66f9c8	-0.22556221
64	0xbe2e9207	-0.17047893
65	0x3d9bacaf	0.07601296
66	0x3d9af88c	0.07566938
67	0x3d1d7bbf	0.03844809
68	0x3d77d98d	0.060510207
69	0x3e69d1eb	0.22833984
70	0x3d727baf	0.059199985
71	0xbbf9d7b0	-0.007624589
72	0x3d598048	0.053100854
73	0x3d225cec	0.0396394
74	0xbda7e8b3	-0.08198681
75	0x3dfad6ee	0.12248026
76	0x3eee2f66	0.46520537
77	0x3d67416a	0.056458868
78	0x3e597203	0.21234898
79	0x3d007bdb	0.031368118
80	0xbadb7071	-0.0016741884
81	0x3e8bf218	0.2733314
82	0x3da3abb0	0.07991731
83	0xbde2ac34	-0.110680014
84	0xbd4a3c8c	-0.04937415
85	0x3c0b6780	0.008508563
86	0xbd620dca	-0.05518893
87	0xbea797e5	-0.32733074
88	0xbd1e2893	-0.038612913
89	0xbc9e061a	-0.019290019
90	0x3ded3c1e	0.11583732
91	0xbd635f41	-0.055510763
92	0x3b4c361c	0.0031160181
93	0x3cb2aade	0.021809991
94	0x3e579ddb	0.21056311
95	0xbd6eb301	-0.05827618
96	0xbd5b8cff	-0.05360126
97	0xbdafadb4	-0.08578053
98	0x3edcf7c4	0.4315778
99	0xbcc5feac	-0.024169289
100	0xbe52511d	-0.20538755
101	0x3c9ae8db	0.018909862
102	0x3ef0599a	0.4694336
103	0x3e621b0b	0.22080629
104	0xbed83382	-0.42226797
105	0x3e8a1f2d	0.2697691
106	0xbd5afadb	-0.05346189
107	0x3b959bfb	0.0045657135
108	0xbd1d52a2	-0.038408883
109	0x3c00aad1	0.007853226
110	0xbd8b349a	-0.06797142
111	0x38f6f8df	0.0001177655
112	0x3ed85cc3	0.42258272
113	0xbcc32076	-0.02381919
114	0x3f16c9ef	0.58901876
115	0xbda48cda	-0.08034678
116	0x3e065a26	0.13120326
117	0xbdb1c649	-0.08680398
118	0x3d95c806	0.07313542
119	0x3d418485	0.04724552
120	0xb8244e7e	-3.917375e-05
121	0xbc9440e3	-0.018097347
122	0x3d740425	0.059574265
123	0x3d552eb6	0.0520465
124	0xbd910b34	-0.07082215
125	0x3d266a1b	0.040628534
126	0x3b35bdde	0.0027731578
127	0x3ccd647d	0.02507233
128	0xbb1d7a40	-0.0024029166
129	0xbd7862fc	-0.060641274
130	0xbd81ce9c	-0.06338236
131	0x3cb12770	0.02162525
132	0xbe929f27	-0.2863705
133	0x3d55463d	0.052068938
134	0xba8aab58	-0.0010579629
135	0x3eba10e1	0.36341003
136	0x3cecec52	0.02892128
137	0xbdc609dd	-0.0966985
138	0x3d84f3e3	0.0649183
139	0xbb9b2660	-0.0047347993
140	0xbf1e3d0c	-0.618119
141	0x3d930427	0.07178526
142	0x3ce4cabc	0.027928703
143	0x3e94beb0	0.29051733
144	0xbd8db3a2	-0.06919028
145	0x3d868d3a	0.065699056
146	0x3d1ee0b7	0.038788524
147	0xbc612a81	-0.013743044
148	0xbd41dbea	-0.047328867
149	0xbc903e81	-0.01760793
150	0xbd06073b	-0.03272174
151	0x3e9e24c6	0.3088743
152	0x3d67b12a	0.05656544
153	0x3d0d2a7e	0.03446435
154	0x3e04f39f	0.12983559
155	0x3dedb6f3	0.116071604
156	0x3da59cf5	0.08086578
157	0x3de28488	0.110604346
158	0xbcc94625	-0.02456958
159	0xbd2b16e7	-0.04176989
160	0xbdcc2f16	-0.099699184
161	0xbca974e0	-0.020685613
162	0xbc65f318	-0.014035009
163	0xbd39662e	-0.04526346
164	0x3d26a475	0.040684182
165	0x3d87dea3	0.066342615
166	0xbd3a555f	-0.045491572
167	0xbe24e2e8	-0.16102183
168	0x3d2dc2dd	0.042422164
169	0x3b6b6800	0.0035920143
170	0x3be30740	0.0069283545
171	0xbc9f2721	-0.019427838
172	0x3d54da34	0.051965907
173	0x3d831935	0.06401292
174	0x3eebc49c	0.4604844
175	0xbc24280b	-0.010019313
176	0xbd72a752	-0.0592416
177	0x3b257f07	0.0025252716
178	0x3e6e2496	0.23256144
179	0xbd2220fd	-0.03958224
180	0xbe7099db	-0.23496191
181	0xbca02b3c	-0.019551866
182	0x3e0834ad	0.13301344
183	0x3e283ef0	0.16430259
184	0x3d8af58d	0.06785116
185	0x3d5b5400	0.053546906
186	0xbcfe98fe	-0.031078812
187	0x3da05567	0.07828789
188	0x3da3da5c	0.08000633
189	0x3da33283	0.07968619
190	0x3e3501e8	0.17676508
191	0x3cf42371	0.029802056
192	0x3df38864	0.11891249
193	0xbd9fa808	-0.07795721
194	0x3da6e654	0.081494
195	0xbc267cb8	-0.010161571
196	0x3cd1a7b0	0.025592655
197	0x3dbebe3f	0.0931363
198	0xbd486e6e	-0.04893344
199	0xbd86960c	-0.06571588
200	0x3b92cf7d	0.004480301
201	0x3d8ccb06	0.06874661
202	0x3daf08f5	0.0854663
203	0x3e8159b9	0.25263765
204	0xbc219a61	-0.009863467
205	0x3e1e3fc6	0.15454015
206	0xbcb296bf	-0.021800397
207	0xbd6fc585	-0.05853798
208	0xbcba53c8	-0.022745028
209	0x3dd3e77f	0.10346889
210	0x3d077284	0.033068195
211	0x3d76dc0c	0.060268447
212	0xbd5b1889	-0.053490195
213	0xbb377694	-0.0027994262
214	0x3d1c025e	0.038088195
215	0x3e77733e	0.24165055
216	0x3e85ed27	0.26157495
217	0xbca9535c	-0.020669632
218	0x3eceef50	0.40416956
219	0x3caec8d7	0.021336002
220	0xbe43e1ad	-0.19129057
221	0xbd00db25	-0.031458993
222	0xbde9d022	-0.11416651
223	0xbd0a2eac	-0.033735916
224	0x3ca0bf84	0.019622572
225	0xbd06919d	-0.03285371
226	0x3e00d4a2	0.12581113
227	0xbc7e6624	-0.015527282
228	0xba4f9f33	-0.0007920146
229	0xbb863480	-0.004095614
230	0x3e9abdec	0.30223024
231	0xbdd23f07	-0.10265928
232	0x3f539595	0.8265012
233	0x3eb2bda3	0.34910306
234	0x3d802de3	0.06258752
235	0xbd708b1e	-0.058726422
236	0xbd3e281a	-0.046424963
237	0xbcf0b5f5	-0.029383639
238	0xbca14ab3	-0.01968894
239	0xbd140e67	-0.036146548
240	0x3db60613	0.08887877
241	0xbd4aae4c	-0.04948263
242	0xbdcdc6ce	-0.100476846
243	0xbd2462cc	-0.040133283
244	0x3ee8fbb7	0.45504543
245	0xbd9a889e	-0.07545589
246	0xbc89fc82	-0.016844038
247	0x3c81ec8d	0.015859867
248	0x3bce0e12	0.0062882984
249	0x3c25ab60	0.01011166
250	0x3d1060a1	0.035248403
251	0x3d956bc2	0.07295944
252	0x3dcbee18	0.09957522
253	0xbd96a277	-0.073552065
254	0x3e1ed758	0.15511835
255	0x3d801df5	0.06255714

backbone.3.bias f4 [128]
0	0xbee4af1e	-0.44664854
1	0x3d5b1aee	0.05349248
2	0xbe9b2c33	-0.3030716
3	0xbf43b1a2	-0.7644292
4	0xbf5c4076	-0.8603586
5	0x3df3bb04	0.11900905
6	0xbe2981fa	-0.16553488
7	0xbf6da963	-0.9283659
8	0xbe25178e	-0.16122267
9	0xbe80bdff	-0.25144956
10	0xbe1e41fc	-0.15454859
11	0xbedbc001	-0.42919925
12	0xbee08d57	-0.43857834
13	0xbe756870	-0.23965621
14	0x3e9c94dc	0.3058232
15	0xbf78dab3	-0.9720871
16	0xbe4cff48	-0.20019257
17	0xbe97e44d	-0.29666367
18	0xbe9ac20a	-0.30226165
19	0xbf718784	-0.94347405
20	0xbe922554	-0.28544104
21	0xbe733f5f	-0.23754643
22	0xbf28893e	-0.65834415
23	0xbf2b3a50	-0.6688585
24	0xbcdcaf66	-0.026939105
25	0xbf04879a	-0.5176941
26	0xbe0387bf	-0.12844752
27	0xbc600748	-0.013673611
28	0xbe798988	-0.2436887
29	0xbe6f6a66	-0.23380432
30	0xbf609e3c	-0.87741446
31	0xbef758b1	-0.48309854
32	0xbed19fbe	-0.40942186
33	0xbf29ca19	-0.66324
34	0xbe939867	-0.2882721
35	0xbd8c9a16	-0.06865327
36	0xbf1605f6	-0.58602846
37	0xbec755fe	-0.38932794
38	0xbe5f034b	-0.217786
39	0xbe11e13d	-0.14246078
40	0xbe193595	-0.14961846
41	0xbe6ba4bc	-0.2301206
42	0xbef92bb9	-0.4866617
43	0xbf3ff3c4	-0.7498133
44	0xbef1f265	-0.47255245
45	0xbf035928	-0.51307917
46	0xbf105d39	-0.56392246
47	0xbe687411	-0.22700526
48	0xbf26d788	-0.65172625
49	0xbeba915c	-0.36439025
50	0xbf42507c	-0.7590406
51	0xbdfaf6e2	-0.122541204
52	0x3dced5f7	0.10099404
53	0xbe8c1dd1	-0.27366498
54	0xbec5afe9	-0.3861077
55	0xbde64d52	-0.112452164
56	0xbf155e11	-0.5834666
57	0x3d840b37	0.064474516
58	0xbee7f407	-0.45303366
59	0xbf635edd	-0.88816625
60	0xbedfcccc	-0.43710935
61	0xbe281e58	-0.16417825
62	0xbda8e226	-0.082462594
63	0xbf2a6a85	-0.66568786
64	0xbecbf2f9	-0.3983381
65	0xbcd304cb	-0.025759121
66	0xbf114aef	-0.56754965
67	0xbe736134	-0.23767549
68	0xbf18914b	-0.595967
69	0xbf65bbe5	-0.8973983
70	0xbf4e29b9	-0.80532414
71	0xbe5c4fac	-0.21514767
72	0xbeadfaff	-0.33980557
73	0xbeed8045	-0.46386924
74	0xbf79fc39	-0.97650486
75	0xbedcf678	-0.4315679
76	0xbf826de0	-1.0189781
77	0xbeff7ea9	-0.49901322
78	0xbe3528c9	-0.1769134
79	0xbe1b0294	-0.15137702
80	0xbe77e0a4	-0.24206787
81	0xbdd4baf4	-0.10387221
82	0xbe117e18	-0.14208257
83	0xbf36d56d	-0.7141941
84	0xbe243199	-0.16034545
85	0x3e405489	0.18782248
86	0xbe51932e	-0.20466301
87	0xbce7301c	-0.028221183
88	0xbdb4217d	-0.0879545
89	0xbec4ea50	-0.38460016
90	0xbf223c63	-0.6337339
91	0xbef4b26f	-0.47792384
92	0xbe6a9d1d	-0.22911496
93	0xbf02ca80	-0.5109024
94	0xbec06439	-0.37576464
95	0xbf513268	-0.8171754
96	0xbf3080f7	-0.68946785
97	0xbf018e4f	-0.5060777
98	0xbebc7b83	-0.36812982
99	0xbca74956	-0.020420711
100	0x3dcfa9ef	0.10139834
101	0xbec838f4	-0.39105952
102	0xbeac4d9a	-0.33652955
103	0xbe74aafe	-0.23893353
104	0xbf29d1e8	-0.66335917
105	0xbea37aef	-0.31929728
106	0x3e28c7ec	0.16482514
107	0xbea26c34	-0.31723177
108	0xbf35f086	-0.71070135
109	0xbef3f46a	-0.4764741
110	0xbebd6aa1	-0.36995414
111	0xbeca2e1d	-0.39488307
112	0xbf5190ad	-0.8186138
113	0xbdececfb	-0.11568638
114	0xbed5095c	-0.41608703
115	0xbf0b62bb	-0.54447526
116	0xbf1e5421	-0.6184712
117	0xbe258393	-0.16163473
118	0xbf010097	-0.50391525
119	0xbf20834c	-0.62700343
120	0xbe099652	-0.13436249
121	0xbf25e945	-0.64809066
122	0xbe8d8b88	-0.27645516
123	0xbf32c876	-0.6983713
124	0xbe57c7bc	-0.21072286
125	0x3dbb11be	0.091342434
126	0x3daa6737	0.08320468
127	0xbf97aa1b	-1.1848787

backbone.6.weight f4 [128, 128]
0	0xbd229569	-0.03969327
1	0x3f0bb261	0.5456906
2	0xbeefb6fb	-0.4681929
3	0xbda55b39	-0.0807404
4	0x3e3b567e	0.18294713
5	0xbf284fca	-0.6574675
6	0xbec1548b	-0.37759814
7	0xbe967def	-0.29392955
8	0xbd61943c	-0.055073008
9	0xbb8b18ce	-0.0042449003
10	0xbd954728	-0.072889626
11	0xbe00a762	-0.12563851
12	0x3ed9926a	0.42494518
13	0x3d07151d	0.03297912
14	0xbd55e44d	-0.052219678
15	0x3e156b72	0.14591768
16	0xbd5f08a9	-0.05445162
17	0x3e2c47bc	0.1682424
18	0xbd258e20	-0.040418744
19	0x3ecd2609	0.4006808
20	0xbec7ce50	-0.3902459
21	0xbe911e87	-0.28343603
22	0xbae1a856	-0.0017216306
23	0x3f055e55	0.52097064
24	0xbd7201af	-0.059083637
25	0x3ebd9b05	0.37032333
26	0x3da2659e	0.07929538
27	0xbe533c00	-0.20628357
28	0x3cab25ab	0.020891985
29	0x3e5ec7ec	0.21755952
30	0xbe97c708	-0.29644036
31	0x3eab54ae	0.33463043
32	0xbcbcc539	-0.023043262
33	0x3e59049a	0.21193162
34	0xbb883894	-0.0041571353
35	0xbf5034de	-0.8133067
36	0x3e6fe877	0.23428522
37	0x3e2acb67	0.16679154
38	0x3d1ff955	0.03905614
39	0xbd83995f	-0.064257376
40	0xbe332dd8	-0.17497957
41	0x3ceff5fc	0.0292921
42	0x3ece8bd9	0.4034107
43	0x3cf864f0	0.030321568
44	0xbd17b4db	-0.03703771
45	0x3e7698af	0.24081682
46	0xbd0293ae	-0.03187912
47	0xbd16ce80	-0.036818027
48	0x3edbbf90	0.42919588
49	0xbd8e40ab	-0.06945928
50	0xbe4bc746	-0.19900236
51	0xba09caca	-0.0005256353
52	0xbd6b8602	-0.057500847
53	0xbe12742b	-0.14302127
54	0x3ebf880e	0.3740849
55	0x3dd1c70b	0.102430426
56	0x3d4fb42d	0.05070894
57	0xbd2fdb2b	-0.042933624
58	0x3e1bbddd	0.15209146
59	0xbc4a102d	-0.012332958
60	0xbd574c51	-0.052563015
61	0xbd500bc0	-0.050792456
62	0xbcd955ac	-0.02653011
63	0xbd0c8de0	-0.03431499
64	0x3e18af43	0.14910607
65	0xbea81e9b	-0.3283585
66	0xbd547c39	-0.05187628
67	0x3e8b4f04	0.27208722
68	0xbe9e7cf2	-0.309547
69	0x3da3711e	0.0798056
70	0xbe9dac41	-0.30795482
71	0x3cc928a3	0.02455551
72	0x3e52c968	0.20584643
73	0x3e03e653	0.1288083
74	0x3e1aa3a0	0.1510148
75	0x3d45fa4c	0.048334405
76	0x3db7bfdf	0.089721434
77	0x3d4353f5	0.04768749
78	0xbd4a2d67	-0.049359705
79	0x3dedb400	0.11606598
80	0xbcdbe460	-0.026842296
81	0x3c99e705	0.018786917
82	0xbc913568	-0.017725661
83	0x3e8e36ee	0.27776283
84	0x3d31b1ed	0.043382574
85	0x3d7ee270	0.062227666
86	0xbd878562	-0.06617238
87	0xbe018b50	-0.126508
88	0x3ddea773	0.10871782
89	0x3cdacf2b	0.026710114
90	0x3ef01f3e	0.46898836
91	0x3e85b0ac	0.26111352
92	0xbcec3b4e	-0.028836872
93	0xbd8450a2	-0.06460692
94	0xbdae0669	-0.084973164
95	0x3d03afd3	0.0321501
96	0xbdfdfc11	-0.124015935
97	0x3db59442	0.088661686
98	0x3d6ffa53	0.058588337
99	0xbda530cc	-0.08065948
100	0xbe1b07f3	-0.15139751
101	0xbd53c5b5	-0.05170222
102	0x3f2213e9	0.6331163
103	0xbc2bbebb	-0.010482485
104	0x3ea307fd	0.31842032
105	0xbb805472	-0.0039163167
106	0xbeb1652d	-0.34647503
107	0x3dc92958	0.09822339
108	0xbc899eb4	-0.016799308
109	0x3e8f1c44	0.27951252
110	0x3da3ca66	0.07997589
111	0x3deb9269	0.11502535
112	0x3e041c46	0.1290141
113	0xbf0d3977	-0.5516581
114	0xbda738b5	-0.08165113
115	0xbe445796	-0.19174036
116	0x3dfa5344	0.12222913
117	0x3cbb79b8	0.022885188
118	0x393be550	0.00017919135
119	0x3cd76df8	0.026297554
120	0xbcbb1490	-0.022836953
121	0xbe3a0f66	-0.18169937
122	0xbccfc3de	-0.025361951
123	0x3e9f154a	0.3107093
124	0xbf0781c6	-0.52932394
125	0xbedb862d	-0.42875805
126	0x3d5f2150	0.05447513
127	0xbda1018b	-0.078616224
128	0x3ece7f7a	0.40331632
129	0xbea84d1b	-0.32871327
130	0xbeb4fb86	-0.35348147
131	0x3ec12e76	0.3773076
132	0xbb31f9b4	-0.0027156891
133	0xbdb67acb	-0.0891014
134	0xbead9458	-0.3390224
135	0x3e4a5280	0.19758034
136	0xbaf72769	-0.001885635
137	0xbe1cd152	-0.15314224
138	0x3c9beb08	0.01903297
139	0x3e4bedec	0.19914979
140	0xbda6b3a1	-0.0813973
141	0xbcc86bc8	-0.024465457
142	0xbdfd2ea9	-0.12362415
143	0x3e2d3a7b	0.1691684
144	0x3e57efd8	0.21087587
145	0xb997121e	-0.00028814463
146	0xbd8a5909	-0.06755263
147	0x3ea09a0f	0.31367537
148	0x3d1a2ff1	0.037643377
149	0x3e4c7e69	0.19970097
150	0x3dff6e5c	0.12472221
151	0xbdac33f9	-0.084083505
152	0x3c2e9020	0.010654479
153	0xbe8bf3d5	-0.27334467
154	0xbea9e36a	-0.33181316
155	0xbed72395	-0.42019334
156	0x3c2aee22	0.010432752
157	0xbe86577e	-0.26238626
158	0xbdbff3cb	-0.09372672
159	0x3dc5ae84	0.09652427
160	0x3e5b9009	0.21441664
161	0xbe98cf21	-0.29845527
162	0xbcc0f598	-0.023554608
163	0x3b0f847c	0.0021899035
164	0xbd3370e4	-0.043808833
165	0xbd88f409	-0.06687171
166	0x3e1587f6	0.14602646
167	0xbd83597f	-0.064135544
168	0x3e29b6c6	0.16573629
169	0x3c3b7f1e	0.011443881
170	0x3ebadeef	0.3649821
171	0x3efad7ff	0.48992917
172	0xbe75c14e	-0.23999521
173	0x3e8e2c6c	0.27768266
174	0x3eb58a2a	0.35456973
175	0x3bdba4ef	0.006703011
176	0x3d656fe6	0.056014918
177	0xbe9053d1	-0.28188947
178	0x3ef277fd	0.4735717
179	0xbd013dda	-0.031553127
180	0xbea85c0d	-0.3288273
181	0x3eed6d72	0.46372563
182	0x3e37439d	0.17896886
183	0x3ea7a699	0.3274429
184	0x3d64d2d2	0.055865116
185	0xbf04a8c7	-0.51820034
186	0xbe4a678c	-0.19766062
187	0x3e26c8c9	0.16287531
188	0x3e7dce8e	0.24785826
189	0xbe893bbd	-0.2680339
190	0x3d2c8098	0.042114824
191	0x3eaa1c0c	0.33224523
192	0xbeaa9dd0	-0.33323526
193	0xbc777c05	-0.015105252
194	0x3dc3c750	0.095595
195	0xbde257e6	-0.110519215
196	0x3b777d06	0.0037763729
197	0x3d6f2365	0.058383364
198	0x3f1c8afb	0.6114957
199	0x3e129a2c	0.14316624
200	0x3edf2264	0.43580925
201	0x3f1af53e	0.6053046
202	0xbd66c76c	-0.056342527
203	0xbeefc86e	-0.46832603
204	0xbd4f17ba	-0.050559737
205	0x3ec7cef4	0.3902508
206	0x3da6b30f	0.081396215
207	0xbe2d2c89	-0.1691152
208	0xbde64cc1	-0.112451084
209	0xbddf7fb9	-0.10913033
210	0xbc99494e	-0.018711712
211	0xbcff0ac4	-0.031133063
212	0xbe95f26b	-0.29286513
213	0xbe4f13ac	-0.20222348
214	0x3da5b2c8	0.080907404
215	0xbe9c9886	-0.30585116
216	0x3da905ab	0.08253034
217	0x3e2a10ed	0.16608019
218	0x3e91e8c3	0.28497896
219	0xbe30486b	-0.17215125
220	0x3dfca7cf	0.123366944
221	0xbe9cf85a	-0.30658227
222	0x3dce1325	0.10062245
223	0x3dce4287	0.10071283
224	0xbd3c1166	-0.04591503
225	0x3f0bd6cc	0.5462463
226	0x3d118c64	0.035534278
227	0xbd81a6d2	-0.063306466
228	0x3d9f4926	0.07777624
229	0xbeb5a501	-0.3547745
230	0xbce15508	-0.027506366
231	0x3b43f1b4	0.0029898705
232	0x3e4c145b	0.1992964
233	0xbe59ec9b	-0.21281664
234	0xbe872a30	-0.26399374
235	0x3c564608	0.01307822
236	0xba15819e	-0.00057032134
237	0x3e6bce70	0.23027968
238	0xbd959a66	-0.0730484
239	0x3eebcb69	0.46053627
240	0x3f10f0a1	0.5661717
241	0x3b2d17fa	0.0026411996
242	0xbe60742d	-0.21919318
243	0x3cc8a455	0.024492422
244	0xbd70b1ea	-0.058763422
245	0xbdcb4bd6	-0.09926574
246	0x3e859ee1	0.26097777
247	0x3ecfa47f	0.40555188
248	0x3d43c44d	0.04779463
249	0x3e1e2b47	0.15446196
250	0xbe644187	-0.22290622
251	0x3c6ae3ce	0.014336539
252	0xbdb22452	-0.08698334
253	0xbe7d311f	-0.2472577
254	0xbe4c6d6d	-0.19963618
255	0x3ee233e3	0.4418021

backbone.6.bias f4 [128]
0	0xbead6cf2	-0.3387218
1	0xbee37b29	-0.444299
2	0xbd85095a	-0.06495924
3	0xbf1c3c34	-0.6102936
4	0xbd5d47d2	-0.05402357
5	0xbe5922d7	-0.21204697
6	0xbe0f7c17	-0.1401218
7	0xbeec8366	-0.46194
8	0xbe9cb72d	-0.30608502
9	0xbe0b49a3	-0.13602309
10	0xbdeaabbe	-0.114585385
11	0xbe8cc92b	-0.2749723
12	0xbed5d1c2	-0.41761595
13	0xbdddf495	-0.10837666
14	0x3d8690a2	0.06570555
15	0xbb9fa1bf	-0.0048715766
16	0xbe91825e	-0.28419775
17	0xbea2aa12	-0.31770378
18	0xbeaaaec1	-0.33336452
19	0xbeffbdfc	-0.49949634
20	0xbdb17911	-0.0866567
21	0xbed35990	-0.41279268
22	0xbed228dd	-0.410468
23	0xbda0f721	-0.07859636
24	0xbeb6e54c	-0.35721815
25	0xbf29e8d4	-0.6637089
26	0xbf3945e3	-0.72372264
27	0xbec5303f	-0.3851337
28	0xbe2bbc13	-0.16770963
29	0xbe9d44c7	-0.30716535
30	0xbd55be5f	-0.052183505
31	0xbe79a60c	-0.24379748
32	0xbdd49f80	-0.10381985
33	0xbe3c7e7b	-0.18407623
34	0xbd483930	-0.048882663
35	0x3cce579e	0.025188264
36	0xbe43a28f	-0.1910498
37	0xbe5c4fce	-0.21514818
38	0xbf78d546	-0.9720043
39	0xbe879c3d	-0.26486388
40	0xbed5b51e	-0.41739744
41	0xbc77fe6a	-0.015136341
42	0xbd365aed	-0.044520307
43	0xbdd601f5	-0.10449592
44	0xbe993cea	-0.29929286
45	0xbde2a540	-0.11066675
46	0xbf11fd1d	-0.57026845
47	0xbe556368	-0.20838702
48	0xbeb3acde	-0.35092825
49	0xbe82fbbb	-0.2558268
50	0xbf1c8032	-0.6113311
51	0xbf4d31a9	-0.801539
52	0xbefb27ca	-0.49053794
53	0xbefcd584	-0.4938165
54	0xbede0d14	-0.43369353
55	0x3d440d14	0.047864035
56	0xbeccc4b4	-0.39993823
57	0xbe30c860	-0.17263937
58	0xbd40818a	-0.046998538
59	0xbe300f95	-0.17193444
60	0xbb83b3cd	-0.0040192367
61	0xbdec1a3e	-0.11528443
62	0xbe6af9d0	-0.22946858
63	0xbf0f4040	-0.5595741
64	0xbf007623	-0.5018026
65	0xbe4cccc5	-0.19999988
66	0xbf32018e	-0.6953362
67	0xbdbd6808	-0.09248358
68	0xbf73eef7	-0.95286506
69	0xbf19dfd9	-0.6010719
70	0xbe0830ca	-0.13299862
71	0xbe9a963d	-0.30192748
72	0xbf175538	-0.5911441
73	0xbf2ed7fa	-0.68298304
74	0xbe6f0cff	-0.23344801
75	0xbe540bc0	-0.20707607
76	0xbe26c8b4	-0.162875
77	0xbec93bfa	-0.3930357
78	0xbecada12	-0.396195
79	0xbdeeb283	-0.11655142
80	0xbd5619fb	-0.05227087
81	0xbe835e38	-0.2565782
82	0xbd97ccc5	-0.074121036
83	0xbdb05ae5	-0.08611087
84	0xbd59a0e9	-0.05313197
85	0xbe5296cd	-0.20565338
86	0xbe253dac	-0.16136807
87	0xbe8e2014	-0.2775885
88	0xbe51e778	-0.20498455
89	0xbefed604	-0.49772656
90	0xbd3c1d1e	-0.045926206
91	0xbe1661d6	-0.14685759
92	0xbe14eca1	-0.14543392
93	0xbd53537e	-0.051593296
94	0xbf4e8f46	-0.8068737
95	0xbeb81785	-0.35955444
96	0xbef02c13	-0.46908626
97	0xbe003590	-0.12520432
98	0xbe345f8e	-0.17614576
99	0x3d942102	0.07232858
100	0xbe5ded90	-0.21672654
101	0x3c124636	0.008927872
102	0xbdfe6f6a	-0.12423594
103	0xbf3ba60d	-0.7330025
104	0xbf7250e1	-0.9465466
105	0xbe2476f8	-0.16061008
106	0xbf1be224	-0.6089194
107	0xbdacf70d	-0.08445559
108	0xbef5d659	-0.48015097
109	0xbe0253aa	-0.12727228
110	0xbf0ba8e6	-0.54554594
111	0xbd86ff23	-0.06591632
112	0xbebd88fd	-0.37018576
113	0xbf04fde0	-0.5194988
114	0xbe1d4b28	-0.15360701
115	0xbecd6118	-0.4011314
116	0xbd183426	-0.037159108
117	0xbebeab08	-0.3723986
118	0xbe1ddf01	-0.154171
119	0xbea1dd9e	-0.31614393
120	0xbe10db40	-0.14146137
121	0xbe0208e6	-0.12698707
122	0xbe45559d	-0.1927094
123	0xbdcc3677	-0.09971326
124	0xbe1b7f7c	-0.1518535
125	0xbe2ca5f7	-0.16860186
126	0xbdedfab8	-0.116200864
127	0xbeb2b952	-0.34907013

backbone.9.weight f4 [128, 128]
0	0xbe8fa2fd	-0.28054038
1	0x3d9ee5c1	0.07758666
2	0x3d71bd4e	0.059018426
3	0xbe18e0d5	-0.14929517
4	0xbe0a1b79	-0.13487042
5	0x3da38733	0.079847716
6	0xbe238342	-0.1596804
7	0xbe1d31e2	-0.1535106
8	0x3d3b0d03	0.045666706
9	0xbdcad736	-0.099043295
10	0xbcca5028	-0.024696425
11	0xbe687200	-0.22699738
12	0xbe030a40	-0.12796879
13	0xbe6e8459	-0.23292674
14	0xbe4cad72	-0.19988039
15	0xbb9b323c	-0.004736213
16	0xbc553866	-0.013013935
17	0xbe51b670	-0.2047975
18	0xbdfe9380	-0.12430477
19	0xbf02336f	-0.5085973
20	0xbdc3085f	-0.09523081
21	0x3e214a6c	0.15751046
22	0x3c8ea08b	0.017410537
23	0xbdc1052b	-0.09424814
24	0x3efecbfa	0.49764997
25	0xbc8ed07b	-0.017433396
26	0xbe7fa640	-0.24965763
27	0xbe051ba2	-0.12998822
28	0xbd40d119	-0.04707441
29	0xbda31efb	-0.079648934
30	0xbd88816b	-0.066653095
31	0x3d44db9a	0.04806099
32	0x3be6af67	0.0070399526
33	0xbc95355f	-0.018213926
34	0xbdcb1261	-0.09915615
35	0xbe04ca43	-0.12967782
36	0xbcaa3d8c	-0.020781301
37	0xbec4572f	-0.38347766
38	0xbdb70d5b	-0.08938094
39	0xbe6a995b	-0.22910063
40	0xbde8f425	-0.11374692
41	0xbe3e2a44	-0.1857081
42	0xbcfce3d4	-0.030870356
43	0xbddd9c89	-0.10820872
44	0x3d5698cb	0.05239181
45	0xbeaf2951	-0.3421121
46	0xbeec4f79	-0.46154383
47	0x3e20ee5c	0.15715927
48	0x3e3f3c76	0.18675408
49	0xbe48373a	-0.19552317
50	0xbe0018ed	-0.12509508
51	0xbdfdede7	-0.12398892
52	0xbdc3496c	-0.095354885
53	0x3e3d4d6e	0.18486568
54	0xbd3c5b6a	-0.045985617
55	0xbea24b6e	-0.31698173
56	0x3e7f816a	0.24951711
57	0x3dfc0cff	0.12307166
58	0x3d3b2c26	0.0456964
59	0x3e016fb6	0.1264027
60	0xbddcc126	-0.10779028
61	0x3b1f3fd6	0.0024299524
62	0xbd8ef4d9	-0.06980295
63	0xbecd5831	-0.40106347
64	0xbde74c80	-0.11293888
65	0x383af005	4.456939e-05
66	0x3f0a716b	0.5407931
67	0xbd9a2c3a	-0.07527967
68	0x3e4bf14b	0.19916265
69	0x3c9fd150	0.019508988
70	0xbe1e6d6c	-0.15471429
71	0x3e0012db	0.12507193
72	0x3dd19efa	0.102354005
73	0xbd29d904	-0.041466728
74	0x3df4cd92	0.11953272
75	0xbd23b6a0	-0.039969087
76	0xbe6fc078	-0.23413265
77	0xbdd6f1a3	-0.10495307
78	0x3e09fce8	0.13475382
79	0xbde1a48f	-0.11017715
80	0x3c3a65f0	0.011376843
81	0xbdd51fec	-0.10406479
82	0xbe20019e	-0.15625617
83	0xbe33ae98	-0.17547071
84	0xbe6f25cf	-0.23354267
85	0x3ce6c67a	0.028170813
86	0x3d5be24b	0.053682607
87	0xbd685d3e	-0.056729548
88	0xbec9a3c5	-0.3938276
89	0x3e14f21c	0.14545482
90	0xbe55d32f	-0.20881341
91	0xbdd33a4d	-0.10313854
92	0xbca2990b	-0.019848367
93	0xbd584058	-0.052795738
94	0x3bbc62d3	0.0057490855
95	0xbc27ac6f	-0.0102339825
96	0x3e3419ec	0.17588013
97	0xbce3d787	-0.027812732
98	0xbcc7c929	-0.024387913
99	0xbef645ed	-0.48100224
100	0xbe87c6cc	-0.26518857
101	0x3da4f7a2	0.08055045
102	0x3d75ecc5	0.060040254
103	0xbe327903	-0.17428975
104	0xbe8661cc	-0.26246488
105	0xbe9a1416	-0.3009345
106	0xbe212d87	-0.15740024
107	0xbe360cba	-0.17778292
108	0x3f2d3ff6	0.6767572
109	0xbe3522ac	-0.17689008
110	0xbf290eb7	-0.6603808
111	0xbe8f0601	-0.27934268
112	0xbe828362	-0.25490862
113	0xbe553cef	-0.20824026
114	0xbd4ce6cc	-0.050024793
115	0xbe32a26f	-0.17444776
116	0xbcb942fb	-0.022614947
117	0x3ccea336	0.02522431
118	0xbebfbd3b	-0.3744906
119	0x3e580aed	0.21097918
120	0xbd8f8e5b	-0.07009574
121	0x3d27483b	0.04084037
122	0xbd4db51e	-0.050221555
123	0xbdf392df	-0.11893248
124	0xbec53d1f	-0.38523194
125	0xbeadd5be	-0.33952135
126	0xbdb167da	-0.08662386
127	0xbb3a9217	-0.0028468424
128	0xbdbb93de	-0.09159063
129	0xbe4ac96b	-0.19803397
130	0x3caa4863	0.02078647
131	0xbd347c9c	-0.04406415
132	0x3c75a47a	0.014992828
133	0x3d730776	0.059333287
134	0xbc3cb6ba	-0.011518175
135	0xbd707e55	-0.05871423
136	0x3ca02472	0.019548628
137	0x3c9062b6	0.017625194
138	0xbc45fc7f	-0.012084126
139	0xba14ef71	-0.00056814315
140	0xbd890789	-0.0669089
141	0xbd61ab19	-0.055094812
142	0xbdbf84e2	-0.09351517
143	0x3ca1a19a	0.019730378
144	0xbde2481c	-0.1104891
145	0x3d012d01	0.03153706
146	0x3be80971	0.0070812036
147	0xbc67e603	-0.01415396
148	0x3cf35575	0.029703835
149	0xbd1b132f	-0.03786009
150	0xbd5f5b3c	-0.054530367
151	0x3c04b630	0.0081000775
152	0xbd87fb58	-0.06639737
153	0xbde4a02f	-0.11163365
154	0xbdbf658c	-0.093455404
155	0xbe3b624c	-0.18299216
156	0xbdf96f18	-0.121793926
157	0xbcd94b86	-0.02652527
158	0x3cd5c5b3	0.026095247
159	0xbd50dcf9	-0.050991986
160	0xbdb1a058	-0.08673161
161	0xbde0e267	-0.10980683
162	0x3cd158f7	0.025555117
163	0xbdb8e3bc	-0.09027812
164	0xbd80fe39	-0.06298489
165	0xbe279933	-0.16367035
166	0x3cc9c20c	0.024628662
167	0xbda3fe64	-0.080075055
168	0xbd9c780d	-0.07640085
169	0xbe1a65ac	-0.15077847
170	0xbdbea0a6	-0.09307985
171	0x3c843ca0	0.01614219
172	0xbcb341d0	-0.021881968
173	0xbe1e1612	-0.15438107
174	0xbe30da44	-0.17270762
175	0xbd9bdd38	-0.076105535
176	0x3b76e80c	0.0037674932
177	0xbd675052	-0.056473084
178	0xbdb35590	-0.08756554
179	0x3cb88a76	0.02252696
180	0x3bda46f4	0.0066612903
181	0x3d3a20c1	0.045441393
182	0xbdaef279	-0.08542342
183	0xbd824715	-0.06361214
184	0x3c1e640a	0.009667406
185	0xbcc097ea	-0.023509938
186	0xbbe9214e	-0.007114566
187	0xbd1aacb4	-0.03776236
188	0xbc64bcf9	-0.01396107
189	0xbdd1a651	-0.102368005
190	0xbd555858	-0.052086204
191	0x3cb74320	0.022370875
192	0x3cd5f793	0.02611903
193	0xbd233b41	-0.03985143
194	0xbbe5e99a	-0.007016373
195	0xbab1181c	-0.0013511213
196	0xbdfe31e7	-0.12411862
197	0xbd8d9665	-0.06913451
198	0xbe26188b	-0.162203
199	0xbda48e4a	-0.08034952
200	0xbdbd8f52	-0.09255852
201	0xbd9b2b79	-0.07576651
202	0x3d3c8770	0.0460276
203	0xbb43b82c	-0.0029864414
204	0xbd19d361	-0.037555102
205	0xbe021aab	-0.12705486
206	0xbd7794ff	-0.060444828
207	0xbc92ffc2	-0.01794422
208	0xbcda2b2d	-0.026631916
209	0x3cbece39	0.023291694
210	0x3d8702e8	0.06592351
211	0xbd8bbf07	-0.06823545
212	0xbdaa7969	-0.083239384
213	0x3d434867	0.04767647
214	0xbd3f7778	-0.046744794
215	0xbcb5d19b	-0.022194674
216	0xbc38d4c4	-0.011281196
217	0xbd88d8fd	-0.06682012
218	0xbd6e8513	-0.05823238
219	0xbe3d77a6	-0.18502674
220	0xbd887cb0	-0.06664407
221	0xbca482bd	-0.020081872
222	0x3cf87d52	0.030333195
223	0x3c49c44a	0.012314865
224	0xba637cb3	-0.00086779444
225	0x3da3be43	0.07995274
226	0x3c2d04ce	0.010560228
227	0x3c2c2a11	0.010508076
228	0xbc7c9e60	-0.015418619
229	0x3d02a49f	0.031895276
230	0xbaf5bc8c	-0.0018748208
231	0xbcdbac82	-0.026815657
232	0xbe0a0228	-0.13477385
233	0xbb9c3772	-0.004767352
234	0x3dfc20cf	0.12310945
235	0xbdd72f98	-0.10507125
236	0xbdd8fd2b	-0.10595163
237	0xbdb67e35	-0.08910791
238	0xbc1456f8	-0.009053938
239	0x3d4a34e2	0.04936684
240	0xbde2641f	-0.11054253
241	0xbe334873	-0.17508106
242	0x3cdd85c0	0.027041316
243	0x3d8229ab	0.06355604
244	0xbd2ae52f	-0.041722473
245	0xbd008338	-0.03137514
246	0xbd70e3bf	-0.058810946
247	0xbe118d6d	-0.14214106
248	0x3c67d3aa	0.014149586
249	0xbdb6a21e	-0.0891764
250	0x3d238440	0.039921045
251	0xbdddbc12	-0.10826887
252	0xbe91d35b	-0.28481564
253	0xbdcefb5a	-0.10106535
254	0x3b666bf8	0.003515957
255	0x3d994512	0.07483877

backbone.9.bias f4 [128]
0	0xbe8fc2df	-0.28078362
1	0xbe539aca	-0.20664516
2	0xbeb195b0	-0.34684515
3	0x3e807a20	0.25093174
4	0xbd996bfa	-0.07491298
5	0xbe4bc043	-0.19897561
6	0xbda401c6	-0.08008151
7	0xbe9100a3	-0.28320798
8	0xbecaf0d7	-0.3963687
9	0xbe7cd592	-0.24690846
10	0xbce2b2be	-0.027673122
11	0xbe6c4a58	-0.23075235
12	0xbe20ad95	-0.15691216
13	0xbe24ec6e	-0.16105816
14	0xbe6928c3	-0.22769456
15	0xbeff82b6	-0.49904412
16	0xbf58e880	-0.84729767
17	0xbeade3e1	-0.3396292
18	0xbed060ff	-0.40699002
19	0xbe8b02f5	-0.27150694
20	0x3f103d08	0.56343126
21	0xbe8531fc	-0.26014698
22	0x3e8b54a9	0.27213028
23	0xbda73ee7	-0.081662945
24	0xbee076ce	-0.4384064
25	0xbd8eeb19	-0.06978435
26	0xbebb9f85	-0.3664514
27	0x3eac54d3	0.33658466
28	0xbe8fac2a	-0.28061038
29	0xbf0579e8	-0.5213914
30	0xbe95152d	-0.29117718
31	0xbe95c674	-0.2925297
32	0xbe5101b5	-0.20410807
33	0x3e1f17dc	0.15536445
34	0xbf41da62	-0.7572385
35	0xbeaf65e5	-0.34257427
36	0x3d8d1b49	0.0688997
37	0xbeb50d68	-0.3536179
38	0xbe7f36bc	-0.24923223
39	0xbe9bdbdf	-0.30441186
40	0xbdd77c83	-0.105217956
41	0x3ee8ed81	0.454937
42	0xbdfff352	-0.124975815
43	0x3e19e1d2	0.1502755
44	0xbe6928ff	-0.22769545
45	0xbdf7502a	-0.12075837
46	0xbe3f0ec4	-0.18657976
47	0x3e891477	0.26773426
48	0xbe93fc1a	-0.28903276
49	0xbdb4cd62	-0.08828236
50	0x3dadcdf4	0.08486548
51	0xbe87527e	-0.26430124
52	0xbec4f7ec	-0.384704
53	0xbe1ec720	-0.15505648
54	0x3e92f2bc	0.28700817
55	0xbf161833	-0.58630675
56	0xbe52a194	-0.2056945
57	0xbf23e51e	-0.6402148
58	0xbe85a1d0	-0.26100016
59	0xbe50c3da	-0.20387211
60	0xbe86b7e9	-0.26312187
61	0xbd4f606e	-0.050629072
62	0xbe13584e	-0.14389154
63	0xbe8f09e1	-0.27937225
64	0xbe552513	-0.20814924
65	0xbd9d415f	-0.07678484
66	0xbe8c28ee	-0.27374977
67	0x3d73f1dc	0.059556827
68	0xbdc4697f	-0.09590434
69	0xbd855f2c	-0.06512293
70	0xbe3fc0ac	-0.18725842
71	0xbe38a50c	-0.1803171
72	0x3ed3b19d	0.41346446
73	0xbe6438cd	-0.22287293
74	0xbec03ada	-0.375449
75	0xbe72a3c1	-0.2369528
76	0x3ed92243	0.42408952
77	0x3ed53ad1	0.41646436
78	0x3edc7c24	0.43063462
79	0xbeda9dd0	-0.42698526
80	0xbeca9626	-0.3956768
81	0x3e8b29c1	0.27180293
82	0x3eed0ece	0.46300358
83	0xbe362383	-0.17786984
84	0xbe6534ca	-0.22383419
85	0x3dc72668	0.09724122
86	0xbe7ce9d6	-0.24698576
87	0xbeb18a88	-0.34676003
88	0xbe483d31	-0.19554593
89	0xbe319831	-0.17343213
90	0xbe74387e	-0.23849675
91	0xbd44a8e6	-0.048012637
92	0xbeb56336	-0.35427254
93	0xbd21e717	-0.039527025
94	0xbecd3e0e	-0.40086406
95	0xbe954d9b	-0.2916077
96	0xbe5032a9	-0.20331825
97	0xbef20cfa	-0.47275525
98	0xbe00b322	-0.12568334
99	0xbf128eb0	-0.57248974
100	0xbde0de63	-0.10979917
101	0xbeb00882	-0.3438149
102	0xbd219506	-0.03944876
103	0xbe94daaf	-0.29073092
104	0xbecbc9ad	-0.39802304
105	0xbe9ea983	-0.30988702
106	0xbe6c8b1f	-0.23099945
107	0xbe76c551	-0.24098708
108	0xbe002e91	-0.12517764
109	0xbda98222	-0.08276774
110	0xbe888dea	-0.26670772
111	0xbe65c9cb	-0.22440259
112	0x3d9c17c4	0.076217204
113	0xbd4ac35d	-0.04950272
114	0xbe9f273d	-0.31084624
115	0xbeb12893	-0.34601268
116	0xbe768e94	-0.24077827
117	0x3d714713	0.058905672
118	0xbee11f61	-0.43969253
119	0xbe7b1802	-0.24520877
120	0xbe341a4d	-0.17588158
121	0xbe6963e0	-0.22792006
122	0x3dcf0acf	0.101094835
123	0x3d087419	0.033313844
124	0xbe975ee8	-0.29564595
125	0xbec73ae5	-0.3891212
126	0x3dfe51e1	0.12417961
127	0xbe07eb10	-0.13273263

head.weight f4 [1, 128]
0	0xbcaad18d	-0.020851875
1	0xbd8539b0	-0.06505144
2	0xbd925d5c	-0.07146713
3	0x3cb66b7a	0.022268046
4	0xbce2b3c8	-0.027673617
5	0x3d7a14ad	0.061054874
6	0x3d5d8c62	0.054088958
7	0xbd03c2b4	-0.032168105
8	0xbb0e5581	-0.0021718445
9	0xbd523776	-0.051322423
10	0xbcb2b0da	-0.021812845
11	0x3c8b8a18	0.017033622
12	0xbcf9fa1f	-0.030514775
13	0x3dd17077	0.10226529
14	0xbd28e739	-0.041236136
15	0xbdc1c7bf	-0.09461927
16	0xbd7deea6	-0.06199517
17	0x3d8359d1	0.064136155
18	0x3d8b8b25	0.06813649
19	0x3d695ac5	0.05697133
20	0x3bdbd5d6	0.006708841
21	0xbd1e700f	-0.038681086
22	0x3cdd405e	0.027008232
23	0x3db1c301	0.08679772
24	0xbca6dcef	-0.020369021
25	0xbcda619c	-0.026657872
26	0x3d8895e2	0.06669213
27	0xbc9b5a49	-0.01896395
28	0xbd867a74	-0.06566325
29	0x3cb41217	0.021981282
30	0xbe7fc79f	-0.24978493
31	0x3ce2d41b	0.02768903
32	0x3e46e0fb	0.1942176
33	0xbc251c66	-0.0100775715
34	0x3c6ce3ef	0.0144586405
35	0x3c56cf13	0.013110894
36	0x3ca249a8	0.019810513
37	0xbd0d0cd9	-0.03443608
38	0x3d1b069b	0.037848096
39	0xbd60e0e7	-0.054901984
40	0xbd070d4c	-0.032971665
41	0xbcc304eb	-0.023806056
42	0x3bbb9313	0.0057243197
43	0x3c53c0e9	0.012924411
44	0x3c4ed318	0.012623571
45	0x3d4dfe94	0.050291613
46	0x3d77280d	0.06034093
47	0xbe58ec0b	-0.21183793
48	0x3ca2a91e	0.019856032
49	0x3d275cca	0.040859975
50	0xbdf92feb	-0.12167343
51	0x3cadaabc	0.021199577
52	0xbd8ec462	-0.06971051
53	0xbcc1e340	-0.023667932
54	0xbc3e826f	-0.0116277775
55	0x3d320501	0.043461803
56	0xbcbfcc73	-0.023412919
57	0x3a1fd484	0.0006097036
58	0xbc248fbd	-0.0100440355
59	0xbb3e1041	-0.0029001387
60	0xbd40dcd3	-0.047085594
61	0x3d351d0d	0.044217158
62	0xbcdec8e2	-0.027195398
63	0xbc76af98	-0.015056513
64	0x3d0a4364	0.033755675
65	0xbcaffbed	-0.021482432
66	0x3d49f25f	0.04930341
67	0x3b32e46a	0.002729679
68	0xbd1b9de4	-0.037992373
69	0x3cf49e7f	0.029860733
70	0x3d62ac4e	0.055340104
71	0x3d51bae6	0.05120363
72	0x3c5b90c6	0.013401216
73	0x3d3f7f92	0.04675252
74	0xbd27431a	-0.040835477
75	0x3c85c15d	0.016327554
76	0xbdc4ac98	-0.09603232
77	0x3be33508	0.006933812
78	0xbf0f1014	-0.5588391
79	0xbd37aa6f	-0.044840273
80	0x3dba352a	0.090921715
81	0x3d0152a8	0.031572968
82	0x3c387d03	0.011260274
83	0x3d76c161	0.060243014
84	0x3d9ef3d7	0.077613525
85	0x3cf111e0	0.029427469
86	0xbd2f2dd8	-0.04276833
87	0x3d7ec975	0.062203843
88	0x3d4b39b2	0.04961557
89	0x3db5c9f0	0.08876407
90	0xbd672a33	-0.05643673
91	0x3cc5c238	0.024140462
92	0x3ba0e7aa	0.004910429
93	0x3ded70f1	0.115938075
94	0xbba53e20	-0.0050428063
95	0x3cae0675	0.021243313
96	0x3c231597	0.009953878
97	0x3d365945	0.044518728
98	0x3bc1b3ca	0.005911325
99	0x3cf27d1f	0.029600678
100	0x3d8b1790	0.067916036
101	0xbd98cf5a	-0.07461424
102	0x3d344ee4	0.04402055
103	0x3d6676b9	0.056265566
104	0xbce95205	-0.028481493
105	0xbcb09a8b	-0.021558067
106	0xbd926b9e	-0.071494326
107	0x3b2c4165	0.0026284095
108	0xbd62ca0e	-0.055368476
109	0xbc9d8fa8	-0.01923354
110	0xbd8cc985	-0.06874374
111	0x3cef6a70	0.029225558
112	0xb85e4809	-5.2996013e-05
113	0x3db2544b	0.08707484
114	0x3d8efe18	0.06982058
115	0x3b9454d6	0.004526715
116	0x3d00a351	0.03140575
117	0x3c99e08e	0.018783834
118	0xbd48dbc2	-0.049037702
119	0xbd53887c	-0.051643834
120	0x3d8a5803	0.06755068
121	0xbd8b8120	-0.06811738
122	0x3bad1dd1	0.0052830954
123	0xbdec1c73	-0.11528864
124	0xba534148	-0.0008058739
125	0x3d6132c1	0.054980043
126	0x3d8931cb	0.066989504
127	0xbc893c95	-0.01675252
